fraud_detection_model.pth (torch, 2604 bytes, 1 tensors)

lr.weight f4 [1, 240]
00000000: 96c3 3540 6bb2 38bf cff9 05c4 0cf2 b8c0
00000010: 9c5d 7c40 eea9 bbbd 0ef3 7fc1 d3e3 7abe
00000020: 7345 14c2 9070 6bc1 2b9e 7e40 2292 9340
00000030: 2194 f5bf 58c0 943f 35f8 4442 ce82 7b42
00000040: fc47 f23c 5bfa bf41 da19 63c0 9d76 ad41
00000050: d3f2 b841 ffba 0f42 49b8 10c0 818c 0842
00000060: aa5a 0342 52b8 0742 5a70 6641 749d 3141
00000070: 3e99 1ac2 3c24 1dc2 3643 07c1 f90b 0cc2
00000080: 5ae2 4ec1 905b 8b41 4c79 e5be ac05 3c40
00000090: d4ee 613e 2a16 e3c1 09f4 14c2 a581 9641
000000a0: fcd6 da3f d0d3 1542 c0eb 45c2 0a02 9bbd
000000b0: 387a 4bbe cf94 40be 5ea7 e23e 3261 4a3e
000000c0: fa17 98be a1d0 6ebd 2bfa 6dbd b275 adbd
000000d0: 8d37 65be 3d98 7cbe f6f5 4bbe fc43 5dbe
000000e0: a974 54be 5e20 7abe 0564 96bd 826a 90bd
000000f0: 8017 ca3d 380b c0bd 1e40 94bd 8fae b1bd
00000100: 0aa9 16bd 5671 8bbe 94da 2ebe b682 923e
00000110: dd52 023e 9606 1abd f59d 8b3e 283f 4e3b
00000120: 56dc 52be 7565 e8bd 7a9a afbd 530b cb3d
00000130: 44e2 80bd 4452 0dbe 52d7 f9bc 80e6 8cbd
00000140: 526f 88be 708f cc3a 762e a83e 42ce c73d
00000150: 5058 2c3c a270 b43e a68a dcbd b08e 913b
00000160: b44c 4ebe 030a d5bd 8e6a 0abd 275d 90bd
00000170: aab1 20bd 168f 3fbd f820 ebbc 38b4 663c
00000180: 5064 5f3d c87a b6bc f963 4e42 ca32 0740
00000190: b104 3542 90e1 9940 d987 233d 4854 3b3e
000001a0: 189d 2f3c 3965 873e d4bd 713e c81f 2d43
000001b0: 4e1f 923f 979c 61c2 f9b0 1fc0 b56b 0c3e
000001c0: 7ae7 853f 722a 103e a058 3c3e 652c 503f
000001d0: 5d0b 413f a107 2e3f b107 1a3f 1036 b33e
000001e0: 5bc2 a23f e3d5 1e3f efdf e23e ca5f 6943
000001f0: cc53 fcbf b64c 103e c5c1 ce40 44fb 6640
00000200: 542d de42 dc37 8d3f 08be 523e fdfd 153f
00000210: c181 173e bf7f 983e 2bf9 5f3e f14a 373f
00000220: 82c6 8f3f 0138 513f 469c 513e bcb3 893e
00000230: 4abc 473e ae18 613e 08c0 bb3e 9897 cc3e
00000240: 3d65 533f 9d7a 683f bfb3 823e b6a3 f63e
00000250: 2811 c442 0504 63bf 5362 9940 cefe dc40
00000260: 0c6f 3142 6feb 4442 0036 ae39 f18c c93e
00000270: a645 c93c 954e 5a3e c220 e03c ecc3 74bc
00000280: 1835 e33c b82e 983d 0012 dd3d c6f4 7d3c
00000290: 78b5 bcbc 651a 213e 8eb0 89bc 3efd de42
000002a0: 0615 d740 085a 9b42 7ccf 8541 1d03 5441
000002b0: eaa3 0941 d57e 8f45 4cd3 c83f b08b 4240
000002c0: a448 1841 7048 1d41 7fba 97be 48b2 a1be
000002d0: f3af a240 e942 5841 44d5 993f db4e 973e
000002e0: 74a0 aa40 2e70 12c1 96e2 633e b529 043e
000002f0: da26 6541 298c 6f3e d8ab c641 ffcb 0a42
00000300: 3c14 bc3f 2887 853e 6075 cabb d475 e53c
00000310: 6061 0a3f 179e b53e eb32 813d 29b8 1e3e
00000320: 3714 3a3e 649e 84bf 98e9 9640 8297 0dbf
00000330: 69d3 c6c0 6edf 2d3d dd0a 3e3e 8eed 313e
00000340: fd7b 5f3e 13f8 383e 77b6 643e 2af5 3b43
00000350: 9098 b4bd dcd1 07be cbf2 b0bb 3db9 3bbd
00000360: eb9d 10be 0014 66bc 66e8 3b44 90ec c643
00000370: e105 553d 5846 67bc 3c4c 1cc1 dafd 91c1
00000380: a640 1ac1 443a a9c1 49bc 19c1 e9a0 1bc1
00000390: dafa d53c fc79 1f3d 4edd b13d 5f65 2b3e
000003a0: b4d6 1c3e 8eab 423e 5a17 4cc2 f1a9 32c2
000003b0: feef 4dc2 3919 2bc2 657e 45c2 6b37 02c2
2.8400626 -0.72147244 -535.90326 -5.7795467 3.9432135 -0.09163271 -15.99684 -0.2450097
-37.06782 -14.714981 3.9784038 4.6115885 -1.918583 1.1621199 49.24239 62.87774
0.02957534 23.997244 -3.5484529 21.682917 23.118567 35.932613 -2.2612479 34.13721
32.83854 33.93 14.40243 11.100941 -38.64965 -39.285385 -8.453909 -35.011692
-12.930262 17.419708 -0.44819105 2.9378462 0.22063762 -28.385822 -37.238316 18.813303
1.7096858 37.45685 -49.480225 -0.07568748 -0.19870842 -0.18806766 0.44268316 0.1976364
-0.29705793 -0.058304433 -0.058099907 -0.08469714 -0.22384472 -0.2466745 -0.19918045 -0.21607965
-0.20747627 -0.2442641 -0.07343296 -0.07051565 0.098677635 -0.0937714 -0.07238792 -0.086758725
-0.036782302 -0.27234906 -0.17075568 0.2861535 0.12726922 -0.037603937 0.2726895 0.003147075
-0.20591864 -0.113474764 -0.08574386 0.09914269 -0.06293157 -0.13800913 -0.03049818 -0.06879902
-0.2664743 0.0015606713 0.32847947 0.097561374 0.010519102 0.35242182 -0.107686326 0.0044420585
-0.20146447 -0.104023 -0.033793025 -0.070490174 -0.039231934 -0.046767317 -0.028702244 0.014081053
0.054539025 -0.022275344 51.59763 2.112475 45.25458 4.8087845 0.039924476 0.1829387
0.010718606 0.26444414 0.2360757 173.12415 1.1415803 -56.40292 -2.4951766 0.13712962
1.0461266 0.14078692 0.18393183 0.8131774 0.75407964 0.6798039 0.60167986 0.35002184
1.2715563 0.62045115 0.44311473 233.37418 -1.9713073 0.14091763 6.4611535 3.609086
111.08853 1.1032672 0.20580304 0.5859068 0.14795591 0.29784963 0.21872394 0.71598727
1.1232455 0.8172608 0.2046977 0.2689494 0.1950542 0.21982071 0.36669946 0.39959407
0.8257635 0.90812093 0.2552776 0.48171777 98.03351 -0.8867801 4.7932525 6.906104
44.358444 49.229916 0.000332281 0.39365342 0.024569344 0.21319039 0.02735937 -0.01493929
0.027735278 0.07430786 0.10794449 0.015500253 -0.02303575 0.15732725 -0.01680782 111.49461
6.7213163 77.67584 16.72631 13.25076 8.602518 4591.854 1.5689483 3.0397758
9.517735 9.830185 -0.29634473 -0.3158133 5.083978 13.5163355 1.2018209 0.2955235
5.3320866 -9.152388 0.22254404 0.12906535 14.321985 0.2339331 24.833908 34.699215
1.4693675 0.2607968 -0.006178543 0.028010286 0.5405483 0.35472175 0.0630854 0.15499939
0.18171774 -1.0360837 4.716015 -0.5530931 -6.213307 0.042449407 0.18558832 0.17375776
0.21824642 0.18063383 0.2233523 187.95767 -0.088181615 -0.13263649 -0.005400037 -0.045830954
-0.14122741 -0.014042854 751.6312 397.84814 0.05200756 -0.014115892 -9.768612 -18.248951
-9.640783 -21.15345 -9.608468 -9.726785 0.026120592 0.038934693 0.08684789 0.16737889
0.15316278 0.19010755 -51.022804 -44.66596 -51.484367 -42.77463 -49.373432 -32.55412
